data.pth (torch, 7807 bytes, 6 tensors)

l1.weight f4 [8, 104]
0	0x3e4f9205	0.20270546
1	0x3dfaf2f0	0.12253368
2	0x3d087fe3	0.033325087
3	0x3f0acf95	0.54222995
4	0x3f4eafc6	0.8073696
5	0x3e8cf0d2	0.2752748
6	0xbde764ed	-0.11298547
7	0x3e147d9d	0.14501043
8	0x3f004b7e	0.5011519
9	0x3f1cac70	0.6120062
10	0xbeafd4bb	-0.34341988
11	0xbd33b9c8	-0.043878347
12	0xbec093ed	-0.37612858
13	0xbeb2b3a0	-0.34902668
14	0x3ebfbf17	0.37450477
15	0xbe8eefac	-0.2791723
16	0xbdc13ef0	-0.094358325
17	0xbedbd3e9	-0.42935112
18	0x3ee3e4c0	0.4451046
19	0x3f2193f4	0.63116384
20	0x3f36023f	0.7109718
21	0xbf0db2ea	-0.55351126
22	0xbe3c0f16	-0.1836513
23	0x3e63dd29	0.22252335
24	0x3f2fa0fc	0.6860502
25	0xbe8de599	-0.27714232
26	0x3f3bea4b	0.7340438
27	0x3f3acd4c	0.7296951
28	0xbf2fc421	-0.68658644
29	0x3ea3dafa	0.32003003
30	0xbf566e33	-0.837619
31	0xbe48d554	-0.19612628
32	0x3d022d95	0.03178175
33	0xbdec5e1c	-0.115413874
34	0xbeb22879	-0.34796503
35	0xbeffdc09	-0.4997256
36	0x3f841d18	1.0321379
37	0xbe839a30	-0.25703573
38	0xbe63e371	-0.22254731
39	0xbe5f46f2	-0.21804407
40	0xbe9e2725	-0.3088924
41	0x3d956a46	0.07295661
42	0x3f69dccc	0.91352534
43	0xbe90df34	-0.2829529
44	0x3efa18f6	0.4884717
45	0x3e91841f	0.28421113
46	0x3e8bd510	0.2731099
47	0x3eaf31a5	0.34217563
48	0x3e95873e	0.29204744
49	0xbe82e27d	-0.25563422
50	0xbe971ff1	-0.29516557
51	0x3e8c64fb	0.27420792
52	0x3f378b49	0.7169691
53	0xbeabaab3	-0.3352867
54	0xbe9fca6b	-0.3120912
55	0xbe2e6af0	-0.17032981
56	0xbde2158d	-0.11039267
57	0x3e4d5f3a	0.20055857
58	0x3e94da4f	0.29072806
59	0x3f221a1b	0.63321084
60	0x3ea207cc	0.31646574
61	0xbeb575aa	-0.35441333
62	0x3f222508	0.63337755
63	0xbdbf2d4c	-0.093348116
64	0x3f0485a7	0.5176644
65	0xbec8d9fb	-0.39228806
66	0x3f34cdde	0.7062663
67	0xbe96ef86	-0.29479617
68	0xbdfe8479	-0.12427611
69	0xbe7c480c	-0.24636859
70	0x3f3c1b75	0.73479396
71	0xbe41d919	-0.18930472
72	0xbdcf9b4c	-0.101370424
73	0x3de1b3ed	0.11020646
74	0x3f375a63	0.71622294
75	0xbf20727e	-0.626747
76	0x3f2795ae	0.6546277
77	0xbe652898	-0.22378767
78	0x3da59d4e	0.08086644
79	0x3f92feb0	1.1483974
80	0x3f26a165	0.6509002
81	0x3ee17ee6	0.44042128
82	0x3f1ad7bc	0.60485435
83	0xbedc07fc	-0.42974842
84	0xbe223f6d	-0.15844508
85	0x3db409d3	0.08790936
86	0xbe4421ac	-0.1915347
87	0x3ead5f65	0.33861843
88	0xbe0db313	-0.13837843
89	0x3ec7de03	0.3903657
90	0x3eadd44e	0.33951038
91	0xbd6faea9	-0.05851618
92	0x3eeee475	0.46658674
93	0xbe4eeab7	-0.20206724
94	0x3e827143	0.25477037
95	0x3ecb93cf	0.39761207
96	0x3e860ed0	0.26183176
97	0x3e7e3b3e	0.24827287
98	0x3f120bfd	0.5704954
99	0xbe72b48a	-0.23701683
100	0x3efac255	0.4897639
101	0x3e4f7696	0.2026008
102	0x3f9a4058	1.2050886
103	0x3f792378	0.97319746
104	0xbe3defbc	-0.18548483
105	0x3e3731b1	0.1789005
106	0x3e40ab9c	0.18815464
107	0x3ecf4427	0.40481684
108	0xbf0eaea5	-0.55735236
109	0x3d4da69a	0.05020771
110	0xbeb117f3	-0.34588584
111	0x3e764495	0.240496
112	0xbe9f58c8	-0.31122422
113	0xbe5f624e	-0.21814844
114	0x3f175e61	0.59128386
115	0x3d7919b2	0.06081552
116	0x3f627ee4	0.8847487
117	0x3f56552c	0.8372371
118	0x3e1026df	0.14077328
119	0xbe194139	-0.14966287
120	0x3ddf7523	0.10911014
121	0x3f2b20bf	0.6684684
122	0xbf038a70	-0.51383114
123	0xbec50c2d	-0.38485852
124	0x3e9d5671	0.30730012
125	0x3f863ff0	1.0488262
126	0xbe5f54b9	-0.21809663
127	0xbe639f1f	-0.22228669
128	0x3ecb3dfe	0.39695734
129	0xbe587c76	-0.21141228
130	0xbeb80cc2	-0.35947233
131	0xbeb0b7f7	-0.34515354
132	0x3f8157b3	1.0104889
133	0x3e8ceccd	0.27524415
134	0x3f3d8645	0.74033004
135	0x3efcb6d7	0.49358246
136	0x3e8457a6	0.2584812
137	0xbe77603a	-0.24157801
138	0x3f5cd0e4	0.8625624
139	0x3f4c4cdf	0.79804796
140	0xbda98e20	-0.08279061
141	0xbec0b191	-0.37635472
142	0x3e63718d	0.22211285
143	0xbef07517	-0.46964332
144	0xbf0b14c4	-0.5432856
145	0x3dbdad14	0.09261528
146	0xbd207d6a	-0.039182104
147	0x3ee2ae17	0.44273445
148	0xbd39c00e	-0.045349173
149	0xbe7c6f4b	-0.2465183
150	0x3e0719a5	0.13193376
151	0x3f07795a	0.5291954
152	0x3e316746	0.17324552
153	0x3ebab5f3	0.3646694
154	0x3e918e27	0.28428766
155	0x3eaf03a5	0.34182468
156	0x3e85edf5	0.2615811
157	0x3ea4a93f	0.32160375
158	0x3ef89190	0.48548555
159	0xbe5febba	-0.21867266
160	0xbe975d09	-0.29563168
161	0x3e091552	0.1338704
162	0xbe7d457b	-0.24733536
163	0xbedeaa72	-0.43489414
164	0xbd41e0ca	-0.047333516
165	0x3f002928	0.500628
166	0xbedcd9fc	-0.4313506
167	0x3eef0756	0.46685284
168	0x3e24539a	0.16047516
169	0xbe2804b6	-0.16408047
170	0xbec0d1ec	-0.37660158
171	0x3ebe330d	0.37148324
172	0xbe126682	-0.14296916
173	0xbefb0e1c	-0.49034202
174	0xbf05e64b	-0.52304524
175	0x3f0543eb	0.5205676
176	0xbea7a98f	-0.3274655
177	0x3e8b6b37	0.27230236
178	0x3e8cea9c	0.27522743
179	0x3f70b2b3	0.94022673
180	0xbf181807	-0.5941166
181	0x3efe99d3	0.49726734
182	0x3e5650d1	0.20929267
183	0xbf48cc2b	-0.78436536
184	0xbe61ca0e	-0.22049734
185	0x3a40650c	0.0007339276
186	0x3f626cf0	0.88447475
187	0x3ee465f7	0.44609043
188	0x3e6b7404	0.22993475
189	0xbe4cbc57	-0.19993721
190	0xbec31ee6	-0.3810951
191	0xbe91c4a9	-0.28470352
192	0x3e9c14ae	0.30484527
193	0xbe71c210	-0.23609185
194	0x3e9870ac	0.29773462
195	0x3e82debe	0.25560564
196	0x3f5c45c0	0.8604393
197	0xbea7bb5b	-0.32760128
198	0xbe411ce8	-0.18858683
199	0x3f2ec3ee	0.68267715
200	0x3e48e077	0.19616877
201	0x3e5e7ceb	0.2172734
202	0x3f10d545	0.56575423
203	0x3ecf0555	0.40433756
204	0x3f7493ea	0.955382
205	0x3e654cb0	0.22392535
206	0xbf47f6f1	-0.7811118
207	0x3ecff250	0.40614557
208	0x3e53dfd4	0.20690852
209	0x3f17f399	0.59356076
210	0x3e85b0d0	0.2611146
211	0x3e362591	0.17787768
212	0x3f9fb138	1.2475958
213	0x3e487fc4	0.19579989
214	0xbbb9f3e6	-0.005674827
215	0xbe1bbd25	-0.15208872
216	0x3ecb1b4c	0.39669263
217	0x3de71bae	0.11284576
218	0xbeb68a5e	-0.3565244
219	0xbe2cc6e9	-0.16872753
220	0xbf0a57fd	-0.5404051
221	0x3f461aa6	0.7738441
222	0x3e442ca4	0.19157654
223	0x3f0825aa	0.5318247
224	0xbdb511de	-0.088412985
225	0xbf8a57db	-1.0808061
226	0x3e7ed2bf	0.24885081
227	0xbebabad5	-0.36470667
228	0x3f3305b0	0.69930553
229	0xbed0d20f	-0.40785262
230	0x3c218d0c	0.009860288
231	0x3e82590f	0.2545857
232	0x3f2d5fa9	0.6772409
233	0x3f16ad61	0.58858305
234	0x3da51db0	0.08062303
235	0x3e448821	0.19192554
236	0xbed92159	-0.42408255
237	0x3e4a35c5	0.19747074
238	0xbf68c709	-0.90928704
239	0xbe4c5744	-0.19955164
240	0xbc949a33	-0.018139934
241	0xbd1c2fc5	-0.038131494
242	0x3f43f313	0.76542777
243	0xbf656dd1	-0.8962069
244	0x3f822d1b	1.0170015
245	0xbea11d5d	-0.31467715
246	0x3eec63a7	0.4616978
247	0xbeb730d1	-0.3577943
248	0xbee6aea5	-0.45055118
249	0x3c02544e	0.00795467
250	0x3f5d19a1	0.8636723
251	0xbea37f2b	-0.3193296
252	0x3ec272bb	0.37978157
253	0x3e306a26	0.17227992
254	0x3e256592	0.16152027
255	0x3db5fa5f	0.08885645

l1.bias f4 [8]
0	0x3eb1ef77	0.3475301
1	0x3f514ead	0.81760675
2	0x3f7d5e73	0.98972243
3	0x3f82ca79	1.021804
4	0x3f40ffa4	0.75390077
5	0x3f67615e	0.90382946
6	0x3fa5f91f	1.2966651
7	0x3f31185d	0.691778

l2.weight f4 [8, 8]
0	0xbea6a4d7	-0.32547638
1	0xbf1abc5a	-0.6044365
2	0x3fafc8d7	1.3733166
3	0xbe21bc9f	-0.1579461
4	0xbad63272	-0.0016341938
5	0x3fd6d748	1.6784449
6	0xbf09721f	-0.5368976
7	0xbeeb185e	-0.45917028
8	0xbea375cb	-0.31925806
9	0x3f88e1d0	1.0693913
10	0xbeda7293	-0.42665538
11	0xbf614f5a	-0.88011706
12	0x3f07fe68	0.5312257
13	0x3f68ce89	0.9094015
14	0x3df0a95f	0.11751055
15	0xbf8a74ac	-1.0816855
16	0x3fcc8826	1.5979049
17	0xbf5714e1	-0.84016234
18	0x3faac259	1.334056
19	0xbf8c19c6	-1.0945365
20	0xbeaf28d4	-0.34210837
21	0x3f97f329	1.1871082
22	0x3f9b4f11	1.2133504
23	0xbf9bf264	-1.2183347
24	0xbf6f2211	-0.93411356
25	0x3f6e80e5	0.9316543
26	0xbf157a6c	-0.58389926
27	0x3f7277dd	0.94714147
28	0x3ef5bbcb	0.47994837
29	0x3f84ba7c	1.036941
30	0x3f12e275	0.57376796
31	0xbf3e46ce	-0.7432679
32	0x3e06da3f	0.13169192
33	0xbef7ad66	-0.4837448
34	0xbe06f5a2	-0.13179639
35	0x3ff2231b	1.8916963
36	0x3f68cc7c	0.9093702
37	0xbe382350	-0.1798222
38	0x3f94570b	1.1589063
39	0x3f97c268	1.1856203
40	0x3fc47f97	1.5351437
41	0x3eb9f876	0.36322373
42	0x3f79381e	0.97351253
43	0xbe6bbc24	-0.23020989
44	0x3fe21c43	1.7664875
45	0x3eabd531	0.3356109
46	0xbf99697d	-1.1985317
47	0x3fc0fe6a	1.5077641
48	0xbde67a0a	-0.11253746
49	0x3f5e7bce	0.8690766
50	0x3fb51aba	1.4148781
51	0xbe2c45b0	-0.16823459
52	0xbedd7701	-0.43254855
53	0xbf071f87	-0.5278248
54	0x3feec3c8	1.8653498
55	0x3e809277	0.25111744
56	0xbf23f59a	-0.64046633
57	0x3ffc9b33	1.9734863
58	0x3e9262a7	0.2859089
59	0x3df723ee	0.120674
60	0x3fbb2ab4	1.4622407
61	0x3f7c65c1	0.98592764
62	0xbf788f79	-0.9709392
63	0xbe89ab6e	-0.26888603

l2.bias f4 [8]
0	0x3f46b0bd	0.7761343
1	0x3e00c1f7	0.12573992
2	0x3ef301d8	0.47462344
3	0x3e25b7a3	0.16183333
4	0x3efa38c8	0.48871446
5	0xbebcdbeb	-0.36886534
6	0x3f3e2c37	0.74286216
7	0x3f0cfabc	0.5507009

l3.weight f4 [17, 8]
0	0xbfda6fa3	-1.7065319
1	0x3e8d6c53	0.27621707
2	0xbfaec8f6	-1.3655078
3	0x3f1eb0b7	0.61988395
4	0xbe809baa	-0.25118762
5	0xbfbe2237	-1.4854192
6	0xbe84f7e5	-0.2597038
7	0x3f01681d	0.5054949
8	0x3e98857e	0.29789346
9	0x3f290c42	0.6603433
10	0x3cfec47b	0.031099549
11	0x3ef49c19	0.47775343
12	0xbf7253dc	-0.9465921
13	0xbfcb279c	-1.5871463
14	0xbf67c519	-0.9053512
15	0x3def8d0e	0.11696826
16	0x3e9eaa01	0.30989078
17	0x3f34dde8	0.706511
18	0x3f1e2281	0.617714
19	0xbf958eb9	-1.168418
20	0xbff5cb4b	-1.9202665
21	0x3e55453f	0.20827197
22	0xbf83c18e	-1.0293443
23	0xbdff142b	-0.124550186
24	0x3efab099	0.48962858
25	0xbfea5c29	-1.8309375
26	0x3f3566d5	0.70860034
27	0xbffa67dc	-1.9562945
28	0xbf99fbe5	-1.2029997
29	0xbd5f8536	-0.0545704
30	0x3d76730e	0.06016832
31	0xbfa4f033	-1.2885803
32	0x3da6dee2	0.0814798
33	0xbffd926a	-1.9810307
34	0xbc7414ad	-0.014897508
35	0xbfb5fe23	-1.4218181
36	0xbf39575c	-0.72398925
37	0x3f16383f	0.58679575
38	0xbf822c69	-1.0169803
39	0x3e860e54	0.26182806
40	0xbfc3472b	-1.5256094
41	0xc03362e9	-2.802912
42	0xbf7cbd4a	-0.9872633
43	0xbfe2af1f	-1.7709693
44	0x3f50dcea	0.8158709
45	0x3f1562cb	0.5835387
46	0xbee1f406	-0.44131488
47	0xbf6c0b9c	-0.92205215
48	0x3e80aa0e	0.2512974
49	0xbea11ed7	-0.3146884
50	0xbe2e005b	-0.16992323
51	0xbde5c591	-0.112193234
52	0xbea48001	-0.3212891
53	0xbd8c13ce	-0.06839715
54	0xbfac4321	-1.3457986
55	0x3d1046a9	0.035223637
56	0xbfd7f492	-1.6871512
57	0xbf61f0de	-0.8825816
58	0xbfe6fb81	-1.8045503
59	0xbf998086	-1.1992347
60	0xbf1bc70a	-0.60850585
61	0x3f6071c2	0.8767358
62	0xbf2a2c1e	-0.6647357
63	0x3ee844e5	0.45365062
64	0x3d81576b	0.06315502
65	0x3f4b8b4e	0.7950944
66	0xbfb14a00	-1.3850708
67	0xbd6c987b	-0.057762604
68	0xbfc9e647	-1.57734
69	0xbdf77ded	-0.12084565
70	0xbf9f8333	-1.2461914
71	0x3f3154f7	0.6927027
72	0xbf323a9a	-0.6962067
73	0xbf2c4496	-0.67292154
74	0xbfb206fe	-1.3908384
75	0x3e9099c5	0.28242317
76	0x3e116ef9	0.14202489
77	0xbca7d2cd	-0.02048626
78	0xc0063261	-2.096825
79	0x3eee0183	0.46485528
80	0xbd9e35f4	-0.077251345
81	0xc0287dd9	-2.6326811
82	0x3ed5dfac	0.4177221
83	0xc016a21f	-2.353645
84	0x3e36604a	0.17810169
85	0x3e9a59fb	0.30146775
86	0xbeb330c7	-0.34998152
87	0xbff3247f	-1.8995513
88	0xbf3c3a5d	-0.73526555
89	0xbfeb19f0	-1.836729
90	0x3f2adede	0.6674632
91	0xc00ac9bd	-2.1685631
92	0xbd19ce40	-0.03755021
93	0xbfa337b6	-1.2751377
94	0x3f316d41	0.69307333
95	0xbfa6f970	-1.3044872
96	0x3e19742a	0.1498572
97	0xc03e1d5c	-2.970542
98	0xbfeb9c40	-1.8407059
99	0xbeb04542	-0.3442784
100	0x3db089c7	0.08620029
101	0xbe9f03e7	-0.31057665
102	0x3e5399ce	0.2066414
103	0x3ee64fcc	0.44982755
104	0xbfba3b59	-1.4549361
105	0xc015a7e9	-2.3383734
106	0xbf86d797	-1.0534543
107	0xbdaee7a0	-0.08540273
108	0x3f7646dc	0.9620187
109	0xbfd18fe6	-1.6372039
110	0x3f276595	0.65389377
111	0xbf8ffd13	-1.1249107
112	0xbee1e97e	-0.44123453
113	0xbfe90702	-1.8205264
114	0x3ebd8d37	0.370218
115	0xbec5dcdf	-0.38645074
116	0xbefdcb75	-0.49569288
117	0xbdbd3c0d	-0.092399694
118	0x3dc87eaa	0.09789784
119	0xbe36cf17	-0.17852436
120	0x3f4d8690	0.8028345
121	0xbfbceb29	-1.4759265
122	0xbef7d8dd	-0.4840764
123	0x3eda359e	0.42619032
124	0x3e924cde	0.2857427
125	0xbfe8da30	-1.8191586
126	0xc009548b	-2.145785
127	0x3ea05049	0.31311253
128	0x3ea596eb	0.32341704
129	0xbee80c3f	-0.45321843
130	0x3ee26c18	0.44223094
131	0xbf1ffb2f	-0.6249265
132	0xbf801510	-1.0006428
133	0xc00234ec	-2.03448
134	0x3f15472d	0.5831173
135	0xbdcbd833	-0.09953346

l3.bias f4 [17]
0	0x3e969754	0.2941233
1	0xbed37e47	-0.4130728
2	0xbe957b88	-0.2919581
3	0xbec7404d	-0.38916245
4	0xbefa033d	-0.48830596
5	0x3d9e222c	0.077213615
6	0xbec3d2da	-0.38246804
7	0xb9a1d898	-0.00030869688
8	0x3e033002	0.12811282
9	0xbe1b2cf8	-0.15153873
10	0xbe23aa49	-0.15982927
11	0xbeae7457	-0.34073135
12	0x3c4962f5	0.01229166
13	0x3f27689f	0.65394014
14	0xbe210524	-0.15724617
15	0x3e955acb	0.29170832
16	0xbcde8cf3	-0.02716682
