data.pth (torch, 5375 bytes, 6 tensors)

l1.weight f4 [8, 62]
-0.10009122 0.82767546 0.32304162 -0.057888236 0.78346 -0.30665994 -0.5046191 0.44886613
-0.29536954 0.62006813 0.31423497 0.15092152 0.18235907 -0.18835145 -0.25167182 -0.07238974
-0.47521284 -0.33680585 0.25053123 -0.43797222 0.28591016 0.7013963 -0.6896014 0.7104829
-0.6895441 -0.689676 -0.49152333 -0.18281992 -0.045751963 0.17934465 -0.0982843 0.071575336
0.31423932 -0.013762984 -0.22774021 -0.251536 0.7388299 -0.08523449 0.86240464 0.54138523
0.07595208 0.6331917 0.0033578593 -0.9200541 -0.30034134 0.039997417 1.229205 0.588968
0.34976488 -0.28452352 0.38249338 0.34903717 -0.2544408 -0.049498126 0.40787417 0.0151487095
0.28890026 -0.36683246 0.6030154 0.30663708 0.27465454 -0.65528685 0.3580694 0.43473735
0.3904654 -0.24712744 -0.08946892 0.28655338 -0.044525467 -0.16207111 -0.052195054 -0.30876797
0.26255485 0.65386236 0.68338686 -0.01834908 0.37157553 0.3059301 0.12301238 -0.06456737
-0.12754722 0.46281716 0.21354274 -0.3256827 0.6529597 0.4254189 0.66026795 0.5949864
0.4750659 0.68894315 0.55060214 -0.19905725 -0.05588463 0.13772792 0.21279645 -0.30256042
-0.23570213 0.32828674 -0.07820842 0.3931241 -0.36779535 -0.06270916 0.11600922 0.2561155
-0.23138319 -0.112876475 0.02685646 -0.18596481 0.9031548 0.305963 -0.19313587 0.36365244
-0.02358046 0.046222005 0.53337145 0.37387702 -0.29442903 0.5611867 -0.29025364 -0.3096401
-0.22887439 0.3612849 -0.18534976 -0.16975944 -0.085783154 -0.068740375 0.13386405 0.10231846
0.53493685 0.4674602 0.82379246 -0.5544888 -0.062777236 0.24579968 0.25214288 -0.3824891
-0.48491555 0.46520862 0.5123757 -0.19324122 0.7039026 -0.0738188 -0.42386594 0.74511415
0.2365789 0.39362228 0.7616978 0.26268363 0.7701972 0.70860845 0.46413577 -0.3220297
-0.11115583 -0.43569842 0.20149453 0.15358302 0.3289433 0.02981629 -0.036928214 0.4820063
0.10204972 -0.146324 -0.6763935 0.28861427 0.1186837 -0.004339959 0.16624276 -0.42904854
-0.042348824 0.03580091 0.02675367 0.2776083 -0.22125083 0.4639812 -0.23528233 -0.36655134
-0.10802413 -0.13510038 0.26553518 -0.38715416 -0.29276338 0.54168284 0.29955176 0.4705153
-0.5976646 0.5678482 0.3929523 0.55084985 0.39759701 0.33060843 -0.8341584 0.6003681
-0.09001524 0.48765156 0.48606107 -0.47929952 -0.21279325 0.6015625 0.5644673 -0.2723464
0.5074798 0.52891594 -0.41427886 0.36001322 0.2882032 0.72666925 -0.20134698 -0.31091574
0.7320815 0.49057576 0.7264949 0.77502 0.6776681 0.756452 0.3636739 0.16683328
0.4654316 -0.09065438 0.44625327 0.15218054 0.2357511 0.5667821 -0.65603364 0.4605842
0.5507284 -0.108537644 -0.10415189 -0.5488723 0.02372075 0.4048004 0.28833503 0.19445418
0.6974539 0.4126938 0.22205518 0.53798133 0.28752303 0.24690431 0.41673818 0.41899207
-0.30257908 0.39713198 0.39416373 -0.3742865 -0.2561958 0.31762186 0.38526803 -0.076155655
-0.109017946 0.25546017 0.5076883 0.18351729 0.5006345 -0.38409516 -0.16647948 -0.082964174
00000000: a0fc ccbd 8ae2 533f b665 a53e 371c 6dbd
00000010: d690 483f 8802 9dbe b82e 01bf c8d1 e53e
00000020: ad3a 97be c9bc 1e3f 68e3 a03e 2c8b 1a3e
00000030: 56bc 3a3e 34df 40be 21db 80be 1241 94bd
00000040: 194f f3be d171 acbe a145 803e e53d e0be
00000050: d162 923e b58e 333f b889 30bf 35e2 353f
00000060: f685 30bf 9b8e 30bf f2a8 fbbe 2535 3bbe
00000070: 6966 3bbd 20a6 373e 4749 c9bd 1796 923d
00000080: fae3 a03e 247e 61bc bb34 69be 54c9 80be
00000090: f523 3d3f 6c8f aebd 8dc6 5c3f 3998 0a3f
000000a0: c48c 9b3d da18 223f 880f 5c3b aa88 6bbf
000000b0: 57c6 99be 55d4 233d 9756 9d3f 9bc6 163f
000000c0: 6214 b33e 11ad 91be 2cd6 c33e 00b5 b23e
000000d0: 1146 82be 8cbe 4abd e2d4 d03e 4b32 783c
000000e0: bcea 933e 77d1 bbbe 385f 1a3f 89ff 9c3e
000000f0: 859f 8c3e e1c0 27bf df54 b73e e595 de3e
00000100: 15eb c73e fa0e 7dbe 7b3b b7bd 20b7 923e
00000110: 5660 36bd f8f5 25be 7bca 55bd d616 9ebe
00000120: 976d 863e 8663 273f 71f2 2e3f cf50 96bc
00000130: 263f be3e dfa2 9c3e eaed fb3d e63b 84bd
00000140: bd9b 02be 5ff6 ec3e f3aa 5a3e e2bf a6be
00000150: 5e28 273f 82d0 d93e 5207 293f 0751 183f
00000160: d63b f33e 945e 303f 43f4 0c3f aad5 4bbe
00000170: 48e7 64bd 8c08 0d3e 50e7 593e 33e9 9abe
00000180: e65b 71be 3315 a83e bc2b a0bd 9047 c93e
00000190: ac4f bcbe a96d 80bd 3e96 ed3d 9221 833e
000001a0: b7ef 6cbe c82b e7bd 1402 dc3c 8f6d 3ebe
000001b0: 2735 673f 2fa7 9c3e 69c5 45be a730 ba3e
000001c0: cf2b c1bc 4953 3d3d 088b 083f cf6c bf3e
000001d0: 67bf 96be eea9 0f3f 209c 94be 2689 9ebe
000001e0: 0c5e 6abe 56fa b83e 54cc 3dbe 6bd5 2dbe
000001f0: 14af afbd c1c7 8cbd a813 093e 578c d13d
00000200: 9ff1 083f f156 ef3e 10e4 523f faf2 0dbf
00000210: 5a91 80bd e9b2 7b3e df18 813e 9cd5 c3be
00000220: da46 f8be d32f ee3e 0e2b 033f 07e1 45be
00000230: f632 343f 502e 97bd f504 d9be cdbf 3e3f
00000240: bd41 723e dc88 c93e a1fe 423f 787e 863e
00000250: a52b 453f 5d67 353f 34a3 ed3e 14e1 a4be
00000260: aba5 e3bd dd13 dfbe 9554 4e3e de44 1d3e
00000270: 426b a83e 4b41 f43c 0a42 17bd 88c9 f63e
00000280: 72ff d03d f5d5 15be 2028 2dbf 40c5 933e
00000290: 7110 f33d 3736 8ebb 8b3b 2a3e 40ac dbbe
000002a0: f675 2dbd faa3 123d 832a db3c ad22 8e3e
000002b0: 948f 62be f28e ed3e daed 70be 9eac bbbe
000002c0: c13b ddbd c157 0abe 3af4 873e 1239 c6be
000002d0: 15e5 95be baab 0a3f d95e 993e 62e7 f03e
000002e0: 8c00 19bf 805e 113f 0b31 c93e 7f04 0d3f
000002f0: d691 cb3e 8245 a93e 688b 55bf b9b1 193f
00000300: e959 b8bd 77ad f93e ffdc f83e bf66 f5be
00000310: 79e6 59be 0000 1a3f ee80 103f fd70 8bbe
00000320: 32ea 013f 0967 073f 5c1c d4be a753 b83e
00000330: 5f8f 933e ff06 3a3f e72d 4ebe 5930 9fbe
00000340: b169 3b3f bf2c fb3e 92fb 393f b667 463f
00000350: a87b 2d3f d7a6 413f 7733 ba3e 58d6 2a3e
00000360: 0d4d ee3e 01a9 b9bd 4f7b e43e 37d5 1b3e
00000370: bd68 713e a218 113f d2f1 27bf b1d1 eb3e
00000380: 89fc 0c3f fc48 debd 964d d5bd e582 0cbf
00000390: 0552 c23c ff41 cf3e a6a0 933e ff1e 473e
000003a0: 578c 323f 9a4c d33e 6f62 633e 25b9 093f
000003b0: 3836 933e 7cd4 7c3e b55e d53e 2186 d63e
000003c0: a5eb 9abe e254 cb3e d4cf c93e 7ba2 bfbe
000003d0: 192c 83be 559f a23e da41 c53e 7ff7 9bbd
000003e0: cd44 dfbd adcb 823e dcf7 013f f5eb 3b3e
000003f0: 9529 003f 1fa8 c4be 9979 2abe 1fe9 a9bd

l1.bias f4 [8]
0.6895054 0.8322846 1.10609 1.061125 0.56084335 -0.1391952 0.5923316 0.25230908
00000000: 6d83 303f 9b10 553f 5b94 8d3f f2d2 873f
00000010: 6e93 0f3f 3089 0ebe 0ba3 173f a82e 813e

l2.weight f4 [8, 8]
0.4143551 -0.29217482 -0.95970404 0.77675253 -0.16976345 -0.24484123 0.6239445 -0.50120777
-0.8042923 0.08285082 1.0841237 0.620086 -1.0866184 -0.2801575 -0.32142046 -0.46377343
0.36936203 -0.63639444 0.72968876 -0.80560267 0.60171 -0.25823188 -0.08605152 0.36911982
1.2788153 -0.67003626 0.5183818 -0.26419988 1.1800821 -0.088877104 1.0696944 -0.5583876
-0.53467983 -1.1912003 0.25502408 0.8386906 0.5117655 0.2432472 0.0005608968 0.97945344
0.51315784 0.90534663 -0.016225005 1.4499913 -0.7692184 0.04152058 0.8371809 0.16062005
0.097765855 0.3921478 1.4530427 0.0058642505 0.88625246 0.17467837 -0.6645961 -0.2426214
0.36098865 0.6053975 0.5983917 0.926383 0.91336185 -0.02643484 -1.4009445 -0.88278246
00000000: 5a26 d43e f097 95be 2aaf 75bf 41d9 463f
00000010: 78d6 2dbe a9b7 7abe d4ba 1f3f 274f 00bf
00000020: 1ae6 4dbf b1ad a93d 91c4 8a3f f5bd 1e3f
00000030: 5016 8bbf ce70 8fbe 3991 a4be b673 edbe
00000040: 051d bd3e bfea 22bf e2cc 3a3f fa3b 4ebf
00000050: ab09 1a3f f836 84be c83b b0bd 46fd bc3e
00000060: 38b0 a33f 7f87 2bbf abb4 043f 3545 87be
00000070: ee0c 973f 3305 b6bd bfeb 883f 7df2 0ebf
00000080: c7e0 08bf 4079 98bf 8492 823e 6db4 563f
00000090: 1003 033f cb15 793e 2609 133a 76bd 7a3f
000000a0: 505e 033f ccc4 673f 4dea 84bc 5199 b93f
000000b0: 7feb 44bf 7c11 2a3d 7d51 563f 9579 243e
000000c0: 7739 c83d 99c7 c83e 4efd b93f e628 c03b
000000d0: 71e1 623f e3de 323e f822 2abf bf71 78be
000000e0: 81d3 b83e 55fb 1a3f 3330 193f 7027 6d3f
000000f0: 15d2 693f e18d d8bc 2652 b3bf 08fe 61bf

l2.bias f4 [8]
-0.2737604 0.99350065 -0.0089235315 0.5005636 0.4673438 0.5398644 0.44217739 -0.3003568
00000000: 532a 8cbe 0f56 7e3f 0134 12bc f024 003f
00000010: b047 ef3e 8e34 0a3f 1365 e23e 5ec8 99be

l3.weight f4 [8, 8]
0.9062154 -0.614192 -0.9720967 0.5783377 0.06427853 -0.047847122 -1.1032394 -0.91807497
-1.1410748 -0.61815536 -1.0593184 -1.0842901 0.9591198 0.36138645 -1.1510924 -0.8802901
-0.94527274 -0.74999785 0.8388217 0.6074165 -0.37926808 -0.8341743 -0.06524615 -0.8371597
0.113199525 -0.24791262 -0.7436982 -1.0539578 -0.9287069 0.8527824 -1.4754367 -0.81587034
-1.8086576 0.5193136 -1.8162278 0.4907244 -0.8952739 0.589278 0.17966412 -1.9696319
-0.66445005 1.201683 -0.6488117 -1.214873 -0.4586889 0.040254362 0.2713207 0.11762863
-0.68229765 0.010511049 0.4480233 -0.3994072 0.7308155 -1.2822349 0.64325833 0.18065785
-0.42690703 -0.69172174 -0.92734396 -0.06974816 -1.2768092 -0.06314513 0.21419318 0.6651071
00000000: bcfd 673f b03b 1dbf 54db 78bf f10d 143f
00000010: 76a4 833d 58fb 43bd f336 8dbf f606 6bbf
00000020: bd0e 92bf 6e3f 1ebf bf97 87bf 05ca 8abf
00000030: e088 753f a507 b93e ff56 93bf b15a 61bf
00000040: 65fd 71bf dcff 3fbf 05bd 563f a67f 1b3f
00000050: 6d2f c2be 728c 55bf c69f 85bd 1950 56bf
00000060: 27d5 e73d cedc 7dbe 0163 3ebf 17e8 86bf
00000070: bcbf 6dbf f34f 5a3f 1cdb bcbf e1dc 50bf
00000080: 1882 e7bf bcf1 043f 277a e8bf 3b40 fb3e
00000090: ac30 65bf ecda 163f dff9 373e e61c fcbf
000000a0: 6619 2abf c0d0 993f 8618 26bf f580 9bbf
000000b0: 46d9 eabe c2e1 243d 8cea 8a3e 47e7 f03d
000000c0: 0fab 2ebf 8936 2c3c 4f63 e53e 1a7f ccbe
000000d0: b916 3b3f 4620 a4bf 94ac 243f 5ffe 383e
000000e0: 8f93 dabe ad14 31bf 6a66 6dbf 20d8 8ebd
000000f0: 7c6e a3bf 3c52 81bd 7555 5b3e 7544 2a3f

l3.bias f4 [8]
-0.31708983 -0.2524785 -0.07903172 0.21008763 0.27867767 -0.01981365 -0.2557928 -0.14873165
00000000: 9959 a2be dd44 81be 62db a1bd 3621 573e
00000010: d7ae 8e3e 3c50 a2bc 46f7 82be 1c4d 18be
